name: "SpherefaceNet-20"
# =========train input=======
layer
{
    name: "Data"
    type: "Python"
    top: "data"
    top: "5_o_Clock_Shadow_label"
    top: "Arched_Eyebrows_label"
    top: "Attractive_label"
    top: "Bags_Under_Eyes_label"
    top: "Bald_label"
    top: "Bangs_label"
    top: "Big_Lips_label"
    top: "Big_Nose_label"
    top: "Black_Hair_label"
    top: "Blond_Hair_label"
    top: "Blurry_label"
    top: "Brown_Hair_label"
    top: "Bushy_Eyebrows_label"
    top: "Chubby_label"
    top: "Double_Chin_label"
    top: "Eyeglasses_label"
    top: "Goatee_label"
    top: "Gray_Hair_label"
    top: "Heavy_Makeup_label"
    top: "High_Cheekbones_label"
    top: "Male_label"
    top: "Mouth_Slightly_Open_label"
    top: "Mustache_label"
    top: "Narrow_Eyes_label"
    top: "No_Beard_label"
    top: "Oval_Face_label"
    top: "Pale_Skin_label"
    top: "Pointy_Nose_label"
    top: "Receding_Hairline_label"
    top: "Rosy_Cheeks_label"
    top: "Sideburns_label"
    top: "Smiling_label"
    top: "Straight_Hair_label"
    top: "Wavy_Hair_label"
    top: "Wearing_Earrings_label"
    top: "Wearing_Hat_label"
    top: "Wearing_Lipstick_label"
    top: "Wearing_Necklace_label"
    top: "Wearing_Necktie_label"
    top: "Young_label"
    include {
        phase: TEST
    }
    python_param {
        module: "myDataLayer3"
        layer: "Data_Layer_validation"
        param_str: '{"mirror": False, "illumination": False, "im_size": (200, 150), "batch_size": 20, "src_file": "/workspace/mnt/group/face-reg/zhubin/celebA/validation.txt", "img_basepath": "/workspace/mnt/group/face-reg/zhubin/"}'
    }
}
############## CNN Architecture ###############
layer {
  name: "conv1_1"
  type: "Convolution"
  bottom: "data"
  top: "conv1_1"
  param {
    lr_mult: 1
    decay_mult: 1
  }
  param {
    lr_mult: 2
    decay_mult: 0
  }
  convolution_param {
    num_output: 64
    kernel_size: 3
    stride: 2
    pad: 1
    weight_filler {
      type: "gaussian"
      std: 0.01
    }
    bias_filler {
      type: "constant"
      value: 0
    }
  }
}
layer {
  name: "relu1_1"
  type: "PReLU"
  bottom: "conv1_1"
  top: "conv1_1"
}
layer {
  name: "conv1_2"
  type: "Convolution"
  bottom: "conv1_1"
  top: "conv1_2"
  param {
    lr_mult: 1
    decay_mult: 1
  }
  param {
    lr_mult: 0
    decay_mult: 0
  }
  convolution_param {
    num_output: 64
    kernel_size: 3
    stride: 1
    pad: 1
    weight_filler {
      type: "gaussian"
      std: 0.01
    }
    bias_filler {
      type: "constant"
      value: 0
    }
  }
}
layer {
  name: "relu1_2"
  type: "PReLU"
  bottom: "conv1_2"
  top: "conv1_2"
}
layer {
  name: "conv1_3"
  type: "Convolution"
  bottom: "conv1_2"
  top: "conv1_3"
  param {
    lr_mult: 1
    decay_mult: 1
  }
  param {
    lr_mult: 0
    decay_mult: 0
  }
  convolution_param {
    num_output: 64
    kernel_size: 3
    stride: 1
    pad: 1
    weight_filler {
      type: "gaussian"
      std: 0.01
    }
    bias_filler {
      type: "constant"
      value: 0
    }
  }
}
layer {
  name: "relu1_3"
  type: "PReLU"
  bottom: "conv1_3"
  top: "conv1_3"
}
layer {
  name: "res1_3"
  type: "Eltwise"
  bottom: "conv1_1"
  bottom: "conv1_3"
  top: "res1_3"
  eltwise_param { 
    operation: 1
  }
}
layer {
  name: "conv2_1"
  type: "Convolution"
  bottom: "res1_3"
  top: "conv2_1"
  param {
    lr_mult: 1
    decay_mult: 1
  }
  param {
    lr_mult: 2
    decay_mult: 0
  }
  convolution_param {
    num_output: 128
    kernel_size: 3
    stride: 2
    pad: 1
    weight_filler {
      type: "gaussian"
      std: 0.01
    }
    bias_filler {
      type: "constant"
      value: 0
    }
  }
}
layer {
  name: "relu2_1"
  type: "PReLU"
  bottom: "conv2_1"
  top: "conv2_1"
}
layer {
  name: "conv2_2"
  type: "Convolution"
  bottom: "conv2_1"
  top: "conv2_2"
  param {
    lr_mult: 1
    decay_mult: 1
  }
  param {
    lr_mult: 0
    decay_mult: 0
  }
  convolution_param {
    num_output: 128
    kernel_size: 3
    stride: 1
    pad: 1
    weight_filler {
      type: "gaussian"
      std: 0.01
    }
    bias_filler {
      type: "constant"
      value: 0
    }
  }
}
layer {
  name: "relu2_2"
  type: "PReLU"
  bottom: "conv2_2"
  top: "conv2_2"
}
layer {
  name: "conv2_3"
  type: "Convolution"
  bottom: "conv2_2"
  top: "conv2_3"
  param {
    lr_mult: 1
    decay_mult: 1
  }
  param {
    lr_mult: 0
    decay_mult: 0
  }
  convolution_param {
    num_output: 128
    kernel_size: 3
    stride: 1
    pad: 1
    weight_filler {
      type: "gaussian"
      std: 0.01
    }
    bias_filler {
      type: "constant"
      value: 0
    }
  }
}
layer {
  name: "relu2_3"
  type: "PReLU"
  bottom: "conv2_3"
  top: "conv2_3"
}
layer {
  name: "res2_3"
  type: "Eltwise"
  bottom: "conv2_1"
  bottom: "conv2_3"
  top: "res2_3"
  eltwise_param { 
    operation: 1
  }
}
layer {
  name: "conv2_4"
  type: "Convolution"
  bottom: "res2_3"
  top: "conv2_4"
  param {
    lr_mult: 1
    decay_mult: 1
  }
  param {
    lr_mult: 0
    decay_mult: 0
  }
  convolution_param {
    num_output: 128
    kernel_size: 3
    stride: 1
    pad: 1
    weight_filler {
      type: "gaussian"
      std: 0.01
    }
    bias_filler {
      type: "constant"
      value: 0
    }
  }
}
layer {
  name: "relu2_4"
  type: "PReLU"
  bottom: "conv2_4"
  top: "conv2_4"
}
layer {
  name: "conv2_5"
  type: "Convolution"
  bottom: "conv2_4"
  top: "conv2_5"
  param {
    lr_mult: 1
    decay_mult: 1
  }
  param {
    lr_mult: 0
    decay_mult: 0
  }
  convolution_param {
    num_output: 128
    kernel_size: 3
    stride: 1
    pad: 1
    weight_filler {
      type: "gaussian"
      std: 0.01
    }
    bias_filler {
      type: "constant"
      value: 0
    }
  }
}
layer {
  name: "relu2_5"
  type: "PReLU"
  bottom: "conv2_5"
  top: "conv2_5"
}
layer {
  name: "res2_5"
  type: "Eltwise"
  bottom: "res2_3"
  bottom: "conv2_5"
  top: "res2_5"
  eltwise_param { 
    operation: 1
  }
}
layer {
  name: "conv3_1"
  type: "Convolution"
  bottom: "res2_5"
  top: "conv3_1"
  param {
    lr_mult: 1
    decay_mult: 1
  }
  param {
    lr_mult: 2
    decay_mult: 0
  }
  convolution_param {
    num_output: 256
    kernel_size: 3
    stride: 2
    pad: 1
    weight_filler {
      type: "gaussian"
      std: 0.01
    }
    bias_filler {
      type: "constant"
      value: 0
    }
  }
}
layer {
  name: "relu3_1"
  type: "PReLU"
  bottom: "conv3_1"
  top: "conv3_1"
}
layer {
  name: "conv3_2"
  type: "Convolution"
  bottom: "conv3_1"
  top: "conv3_2"
  param {
    lr_mult: 1
    decay_mult: 1
  }
  param {
    lr_mult: 0
    decay_mult: 0
  }
  convolution_param {
    num_output: 256
    kernel_size: 3
    stride: 1
    pad: 1
    weight_filler {
      type: "gaussian"
      std: 0.01
    }
    bias_filler {
      type: "constant"
      value: 0
    }
  }
}
layer {
  name: "relu3_2"
  type: "PReLU"
  bottom: "conv3_2"
  top: "conv3_2"
}
layer {
  name: "conv3_3"
  type: "Convolution"
  bottom: "conv3_2"
  top: "conv3_3"
  param {
    lr_mult: 1
    decay_mult: 1
  }
  param {
    lr_mult: 0
    decay_mult: 0
  }
  convolution_param {
    num_output: 256
    kernel_size: 3
    stride: 1
    pad: 1
    weight_filler {
      type: "gaussian"
      std: 0.01
    }
    bias_filler {
      type: "constant"
      value: 0
    }
  }
}
layer {
  name: "relu3_3"
  type: "PReLU"
  bottom: "conv3_3"
  top: "conv3_3"
}
layer {
  name: "res3_3"
  type: "Eltwise"
  bottom: "conv3_1"
  bottom: "conv3_3"
  top: "res3_3"
  eltwise_param { 
    operation: 1
  }
}
layer {
  name: "conv3_4"
  type: "Convolution"
  bottom: "res3_3"
  top: "conv3_4"
  param {
    lr_mult: 1
    decay_mult: 1
  }
  param {
    lr_mult: 0
    decay_mult: 0
  }
  convolution_param {
    num_output: 256
    kernel_size: 3
    stride: 1
    pad: 1
    weight_filler {
      type: "gaussian"
      std: 0.01
    }
    bias_filler {
      type: "constant"
      value: 0
    }
  }
}
layer {
  name: "relu3_4"
  type: "PReLU"
  bottom: "conv3_4"
  top: "conv3_4"
}
layer {
  name: "conv3_5"
  type: "Convolution"
  bottom: "conv3_4"
  top: "conv3_5"
  param {
    lr_mult: 1
    decay_mult: 1
  }
  param {
    lr_mult: 0
    decay_mult: 0
  }
  convolution_param {
    num_output: 256
    kernel_size: 3
    stride: 1
    pad: 1
    weight_filler {
      type: "gaussian"
      std: 0.01
    }
    bias_filler {
      type: "constant"
      value: 0
    }
  }
}
layer {
  name: "relu3_5"
  type: "PReLU"
  bottom: "conv3_5"
  top: "conv3_5"
}
layer {
  name: "res3_5"
  type: "Eltwise"
  bottom: "res3_3"
  bottom: "conv3_5"
  top: "res3_5"
  eltwise_param { 
    operation: 1
  }
}
layer {
  name: "conv3_6"
  type: "Convolution"
  bottom: "res3_5"
  top: "conv3_6"
  param {
    lr_mult: 1
    decay_mult: 1
  }
  param {
    lr_mult: 0
    decay_mult: 0
  }
  convolution_param {
    num_output: 256
    kernel_size: 3
    stride: 1
    pad: 1
    weight_filler {
      type: "gaussian"
      std: 0.01
    }
    bias_filler {
      type: "constant"
      value: 0
    }
  }
}
layer {
  name: "relu3_6"
  type: "PReLU"
  bottom: "conv3_6"
  top: "conv3_6"
}
layer {
  name: "conv3_7"
  type: "Convolution"
  bottom: "conv3_6"
  top: "conv3_7"
  param {
    lr_mult: 1
    decay_mult: 1
  }
  param {
    lr_mult: 0
    decay_mult: 0
  }
  convolution_param {
    num_output: 256
    kernel_size: 3
    stride: 1
    pad: 1
    weight_filler {
      type: "gaussian"
      std: 0.01
    }
    bias_filler {
      type: "constant"
      value: 0
    }
  }
}
layer {
  name: "relu3_7"
  type: "PReLU"
  bottom: "conv3_7"
  top: "conv3_7"
}
layer {
  name: "res3_7"
  type: "Eltwise"
  bottom: "res3_5"
  bottom: "conv3_7"
  top: "res3_7"
  eltwise_param { 
    operation: 1
  }
}
layer {
  name: "conv3_8"
  type: "Convolution"
  bottom: "res3_7"
  top: "conv3_8"
  param {
    lr_mult: 1
    decay_mult: 1
  }
  param {
    lr_mult: 0
    decay_mult: 0
  }
  convolution_param {
    num_output: 256
    kernel_size: 3
    stride: 1
    pad: 1
    weight_filler {
      type: "gaussian"
      std: 0.01
    }
    bias_filler {
      type: "constant"
      value: 0
    }
  }
}
layer {
  name: "relu3_8"
  type: "PReLU"
  bottom: "conv3_8"
  top: "conv3_8"
}
layer {
  name: "conv3_9"
  type: "Convolution"
  bottom: "conv3_8"
  top: "conv3_9"
  param {
    lr_mult: 1
    decay_mult: 1
  }
  param {
    lr_mult: 0
    decay_mult: 0
  }
  convolution_param {
    num_output: 256
    kernel_size: 3
    stride: 1
    pad: 1
    weight_filler {
      type: "gaussian"
      std: 0.01
    }
    bias_filler {
      type: "constant"
      value: 0
    }
  }
}
layer {
  name: "relu3_9"
  type: "PReLU"
  bottom: "conv3_9"
  top: "conv3_9"
}
layer {
  name: "res3_9"
  type: "Eltwise"
  bottom: "res3_7"
  bottom: "conv3_9"
  top: "res3_9"
  eltwise_param { 
    operation: 1
  }
}
layer {
  name: "conv4_1"
  type: "Convolution"
  bottom: "res3_9"
  top: "conv4_1"
  param {
    lr_mult: 1
    decay_mult: 1
  }
  param {
    lr_mult: 2
    decay_mult: 0
  }
  convolution_param {
    num_output: 512
    kernel_size: 3
    stride: 2
    pad: 1
    weight_filler {
      type: "gaussian"
      std: 0.01
    }
    bias_filler {
      type: "constant"
      value: 0
    }
  }
}
layer {
  name: "relu4_1"
  type: "PReLU"
  bottom: "conv4_1"
  top: "conv4_1"
}
layer {
  name: "conv4_2"
  type: "Convolution"
  bottom: "conv4_1"
  top: "conv4_2"
  param {
    lr_mult: 1
    decay_mult: 1
  }
  param {
    lr_mult: 0
    decay_mult: 0
  }
  convolution_param {
    num_output: 512
    kernel_size: 3
    stride: 1
    pad: 1
    weight_filler {
      type: "gaussian"
      std: 0.01
    }
    bias_filler {
      type: "constant"
      value: 0
    }
  }
}
layer {
  name: "relu4_2"
  type: "PReLU"
  bottom: "conv4_2"
  top: "conv4_2"
}
layer {
  name: "conv4_3"
  type: "Convolution"
  bottom: "conv4_2"
  top: "conv4_3"
  param {
    lr_mult: 1
    decay_mult: 1
  }
  param {
    lr_mult: 0
    decay_mult: 0
  }
  convolution_param {
    num_output: 512
    kernel_size: 3
    stride: 1
    pad: 1
    weight_filler {
      type: "gaussian"
      std: 0.01
    }
    bias_filler {
      type: "constant"
      value: 0
    }
  }
}
layer {
  name: "relu4_3"
  type: "PReLU"
  bottom: "conv4_3"
  top: "conv4_3"
}
layer {
  name: "res4_3"
  type: "Eltwise"
  bottom: "conv4_1"
  bottom: "conv4_3"
  top: "res4_3"
  eltwise_param { 
    operation: 1
  }
}
# ================================
layer {
  name: "fc-512"
  type: "InnerProduct"
  bottom: "res4_3"
  top: "fc-512"
  param {
    lr_mult: 1
    decay_mult: 1
  }
  param {
    lr_mult: 2
    decay_mult: 0
  }
  inner_product_param {
    num_output: 512
    weight_filler {
      type: "gaussian"
      std: 0.01
    }
    bias_filler {
      type: "constant"
      value: 0
    }
  }
}
#=================================
layer
{
    name: "dropout"
    type: "Dropout"
    bottom: "fc-512"
    top: "fc-512"
    dropout_param {
        dropout_ratio: 0.5
    }
}
#=================================

#========5_o_Clock_Shadow=======
layer
{
  name: "cls_5_o_Clock_Shadow"
  type: "InnerProduct"
  bottom: "fc-512"
  top: "cls_5_o_Clock_Shadow"
  param {
    lr_mult: 1
    decay_mult: 1
  }
  param {
    lr_mult: 2
    decay_mult: 0
  }
  inner_product_param {
    num_output: 2
    weight_filler {
      type: "gaussian"
      std: 0.01
    }
    bias_filler {
      type: "constant"
      value: 0
    }
  }
}
layer {
    bottom: "cls_5_o_Clock_Shadow"
    bottom: "5_o_Clock_Shadow_label"
    top: "5_o_Clock_Shadow_acc/top-1"
    name: "5_o_Clock_Shadow_acc/top-1"
    type: "Accuracy"
    include {
        phase: TEST
    }
}
# ==========Arched_Eyebrows ===============
layer
{
  name: "cls_Arched_Eyebrows"
  type: "InnerProduct"
  bottom: "fc-512"
  top: "cls_Arched_Eyebrows"
  param {
    lr_mult: 1
    decay_mult: 1
  }
  param {
    lr_mult: 2
    decay_mult: 0
  }
  inner_product_param {
    num_output: 2
    weight_filler {
      type: "gaussian"
      std: 0.01
    }
    bias_filler {
      type: "constant"
      value: 0
    }
  }
}
layer {
    bottom: "cls_Arched_Eyebrows"
    bottom: "Arched_Eyebrows_label"
    top: "Arched_Eyebrows_acc/top-1"
    name: "Arched_Eyebrows_acc/top-1"
    type: "Accuracy"
    include {
        phase: TEST
    }
}
#  =========Attractive ========
layer
{
  name: "cls_Attractive"
  type: "InnerProduct"
  bottom: "fc-512"
  top: "cls_Attractive"
  param {
    lr_mult: 1
    decay_mult: 1
  }
  param {
    lr_mult: 2
    decay_mult: 0
  }
  inner_product_param {
    num_output: 2
    weight_filler {
      type: "gaussian"
      std: 0.01
    }
    bias_filler {
      type: "constant"
      value: 0
    }
  }
}
layer {
    bottom: "cls_Attractive"
    bottom: "Attractive_label"
    top: "Attractive_acc/top-1"
    name: "Attractive_acc/top-1"
    type: "Accuracy"
    include {
        phase: TEST
    }
}
#========= Bags_Under_Eyes
layer
{
  name: "cls_Bags_Under_Eyes"
  type: "InnerProduct"
  bottom: "fc-512"
  top: "cls_Bags_Under_Eyes"
  param {
    lr_mult: 1
    decay_mult: 1
  }
  param {
    lr_mult: 2
    decay_mult: 0
  }
  inner_product_param {
    num_output: 2
    weight_filler {
      type: "gaussian"
      std: 0.01
    }
    bias_filler {
      type: "constant"
      value: 0
    }
  }
}
layer {
    bottom: "cls_Bags_Under_Eyes"
    bottom: "Bags_Under_Eyes_label"
    top: "Bags_Under_Eyes_acc/top-1"
    name: "Bags_Under_Eyes_acc/top-1"
    type: "Accuracy"
    include {
        phase: TEST
    }
}
#=========cls_Bald  ============
layer
{
  name: "cls_Bald"
  type: "InnerProduct"
  bottom: "fc-512"
  top: "cls_Bald"
  param {
    lr_mult: 1
    decay_mult: 1
  }
  param {
    lr_mult: 2
    decay_mult: 0
  }
  inner_product_param {
    num_output: 2
    weight_filler {
      type: "gaussian"
      std: 0.01
    }
    bias_filler {
      type: "constant"
      value: 0
    }
  }
}
layer {
    bottom: "cls_Bald"
    bottom: "Bald_label"
    top: "Bald_acc/top-1"
    name: "Bald_acc/top-1"
    type: "Accuracy"
    include {
        phase: TEST
    }
}
#======== Bangs
layer
{
  name: "cls_Bangs"
  type: "InnerProduct"
  bottom: "fc-512"
  top: "cls_Bangs"
  param {
    lr_mult: 1
    decay_mult: 1
  }
  param {
    lr_mult: 2
    decay_mult: 0
  }
  inner_product_param {
    num_output: 2
    weight_filler {
      type: "gaussian"
      std: 0.01
    }
    bias_filler {
      type: "constant"
      value: 0
    }
  }
}
layer {
    bottom: "cls_Bangs"
    bottom: "Bangs_label"
    top: "Bangs_acc/top-1"
    name: "Bangs_acc/top-1"
    type: "Accuracy"
    include {
        phase: TEST
    }
}
#=======cls_Big_Lips======
layer
{
  name: "cls_Big_Lips"
  type: "InnerProduct"
  bottom: "fc-512"
  top: "cls_Big_Lips"
  param {
    lr_mult: 1
    decay_mult: 1
  }
  param {
    lr_mult: 2
    decay_mult: 0
  }
  inner_product_param {
    num_output: 2
    weight_filler {
      type: "gaussian"
      std: 0.01
    }
    bias_filler {
      type: "constant"
      value: 0
    }
  }
}
layer {
    bottom: "cls_Big_Lips"
    bottom: "Big_Lips_label"
    top: "Big_Lips_acc/top-1"
    name: "Big_Lips_acc/top-1"
    type: "Accuracy"
    include {
        phase: TEST
    }
}
# ======= cls_Big_Nose =====
layer
{
  name: "cls_Big_Nose"
  type: "InnerProduct"
  bottom: "fc-512"
  top: "cls_Big_Nose"
  param {
    lr_mult: 1
    decay_mult: 1
  }
  param {
    lr_mult: 2
    decay_mult: 0
  }
  inner_product_param {
    num_output: 2
    weight_filler {
      type: "gaussian"
      std: 0.01
    }
    bias_filler {
      type: "constant"
      value: 0
    }
  }
}
layer {
    bottom: "cls_Big_Nose"
    bottom: "Big_Nose_label"
    top: "Big_Nose_acc/top-1"
    name: "Big_Nose_acc/top-1"
    type: "Accuracy"
    include {
        phase: TEST
    }
}
#======= Black_Hair
layer
{
  name: "cls_Black_Hair"
  type: "InnerProduct"
  bottom: "fc-512"
  top: "cls_Black_Hair"
  param {
    lr_mult: 1
    decay_mult: 1
  }
  param {
    lr_mult: 2
    decay_mult: 0
  }
  inner_product_param {
    num_output: 2
    weight_filler {
      type: "gaussian"
      std: 0.01
    }
    bias_filler {
      type: "constant"
      value: 0
    }
  }
}
layer {
    bottom: "cls_Black_Hair"
    bottom: "Black_Hair_label"
    top: "Black_Hair_acc/top-1"
    name: "Black_Hair_acc/top-1"
    type: "Accuracy"
    include {
        phase: TEST
    }
}
#===========cls_Blond_Hair 
layer
{
  name: "cls_Blond_Hair"
  type: "InnerProduct"
  bottom: "fc-512"
  top: "cls_Blond_Hair"
  param {
    lr_mult: 1
    decay_mult: 1
  }
  param {
    lr_mult: 2
    decay_mult: 0
  }
  inner_product_param {
    num_output: 2
    weight_filler {
      type: "gaussian"
      std: 0.01
    }
    bias_filler {
      type: "constant"
      value: 0
    }
  }
}
layer {
    bottom: "cls_Blond_Hair"
    bottom: "Blond_Hair_label"
    top: "Blond_Hair_acc/top-1"
    name: "Blond_Hair_acc/top-1"
    type: "Accuracy"
    include {
        phase: TEST
    }
}
# =========== cls_Blurry
layer
{
  name: "cls_Blurry"
  type: "InnerProduct"
  bottom: "fc-512"
  top: "cls_Blurry"
  param {
    lr_mult: 1
    decay_mult: 1
  }
  param {
    lr_mult: 2
    decay_mult: 0
  }
  inner_product_param {
    num_output: 2
    weight_filler {
      type: "gaussian"
      std: 0.01
    }
    bias_filler {
      type: "constant"
      value: 0
    }
  }
} 
layer {
    bottom: "cls_Blurry"
    bottom: "Blurry_label"
    top: "Blurry_acc/top-1"
    name: "Blurry_acc/top-1"
    type: "Accuracy"
    include {
        phase: TEST
    }
}
#=========== Brown_Hair
layer
{
  name: "cls_Brown_Hair"
  type: "InnerProduct"
  bottom: "fc-512"
  top: "cls_Brown_Hair"
  param {
    lr_mult: 1
    decay_mult: 1
  }
  param {
    lr_mult: 2
    decay_mult: 0
  }
  inner_product_param {
    num_output: 2
    weight_filler {
      type: "gaussian"
      std: 0.01
    }
    bias_filler {
      type: "constant"
      value: 0
    }
  }
}  
layer {
    bottom: "cls_Brown_Hair"
    bottom: "Brown_Hair_label"
    top: "Brown_Hair_acc/top-1"
    name: "Brown_Hair_acc/top-1"
    type: "Accuracy"
    include {
        phase: TEST
    }
}
# =========Bushy_Eyebrows
layer
{
  name: "cls_Bushy_Eyebrows"
  type: "InnerProduct"
  bottom: "fc-512"
  top: "cls_Bushy_Eyebrows"
  param {
    lr_mult: 1
    decay_mult: 1
  }
  param {
    lr_mult: 2
    decay_mult: 0
  }
  inner_product_param {
    num_output: 2
    weight_filler {
      type: "gaussian"
      std: 0.01
    }
    bias_filler {
      type: "constant"
      value: 0
    }
  }
}  
layer {
    bottom: "cls_Bushy_Eyebrows"
    bottom: "Bushy_Eyebrows_label"
    top: "Bushy_Eyebrows_acc/top-1"
    name: "Bushy_Eyebrows_acc/top-1"
    type: "Accuracy"
    include {
        phase: TEST
    }
}
#===========cls_Chubby
layer
{
  name: "cls_Chubby"
  type: "InnerProduct"
  bottom: "fc-512"
  top: "cls_Chubby"
  param {
    lr_mult: 1
    decay_mult: 1
  }
  param {
    lr_mult: 2
    decay_mult: 0
  }
  inner_product_param {
    num_output: 2
    weight_filler {
      type: "gaussian"
      std: 0.01
    }
    bias_filler {
      type: "constant"
      value: 0
    }
  }
}
layer {
    bottom: "cls_Chubby"
    bottom: "Chubby_label"
    top: "Chubby_acc/top-1"
    name: "Chubby_acc/top-1"
    type: "Accuracy"
    include {
        phase: TEST
    }
}
#========== cls_Double_Chin
layer
{
  name: "cls_Double_Chin"
  type: "InnerProduct"
  bottom: "fc-512"
  top: "cls_Double_Chin"
  param {
    lr_mult: 1
    decay_mult: 1
  }
  param {
    lr_mult: 2
    decay_mult: 0
  }
  inner_product_param {
    num_output: 2
    weight_filler {
      type: "gaussian"
      std: 0.01
    }
    bias_filler {
      type: "constant"
      value: 0
    }
  }
} 
layer {
    bottom: "cls_Double_Chin"
    bottom: "Double_Chin_label"
    top: "Double_Chin_acc/top-1"
    name: "Double_Chin_acc/top-1"
    type: "Accuracy"
    include {
        phase: TEST
    }
}
#========== Eyeglasses
layer
{
  name: "cls_Eyeglasses"
  type: "InnerProduct"
  bottom: "fc-512"
  top: "cls_Eyeglasses"
  param {
    lr_mult: 1
    decay_mult: 1
  }
  param {
    lr_mult: 2
    decay_mult: 0
  }
  inner_product_param {
    num_output: 2
    weight_filler {
      type: "gaussian"
      std: 0.01
    }
    bias_filler {
      type: "constant"
      value: 0
    }
  }
}
layer {
    bottom: "cls_Eyeglasses"
    bottom: "Eyeglasses_label"
    top: "Eyeglasses_acc/top-1"
    name: "Eyeglasses_acc/top-1"
    type: "Accuracy"
    include {
        phase: TEST
    }
}   
# ================cls_Goatee
layer
{
  name: "cls_Goatee"
  type: "InnerProduct"
  bottom: "fc-512"
  top: "cls_Goatee"
  param {
    lr_mult: 1
    decay_mult: 1
  }
  param {
    lr_mult: 2
    decay_mult: 0
  }
  inner_product_param {
    num_output: 2
    weight_filler {
      type: "gaussian"
      std: 0.01
    }
    bias_filler {
      type: "constant"
      value: 0
    }
  }
} 
layer {
    bottom: "cls_Goatee"
    bottom: "Goatee_label"
    top: "Goatee_acc/top-1"
    name: "Goatee_acc/top-1"
    type: "Accuracy"
    include {
        phase: TEST
    }
}
# ===================Gray_Hair
layer
{
  name: "cls_Gray_Hair"
  type: "InnerProduct"
  bottom: "fc-512"
  top: "cls_Gray_Hair"
  param {
    lr_mult: 1
    decay_mult: 1
  }
  param {
    lr_mult: 2
    decay_mult: 0
  }
  inner_product_param {
    num_output: 2
    weight_filler {
      type: "gaussian"
      std: 0.01
    }
    bias_filler {
      type: "constant"
      value: 0
    }
  }
} 
layer {
    bottom: "cls_Gray_Hair"
    bottom: "Gray_Hair_label"
    top: "Gray_Hair_acc/top-1"
    name: "Gray_Hair_acc/top-1"
    type: "Accuracy"
    include {
        phase: TEST
    }
}
#==========cls_Heavy_Makeup
layer
{
  name: "cls_Heavy_Makeup"
  type: "InnerProduct"
  bottom: "fc-512"
  top: "cls_Heavy_Makeup"
  param {
    lr_mult: 1
    decay_mult: 1
  }
  param {
    lr_mult: 2
    decay_mult: 0
  }
  inner_product_param {
    num_output: 2
    weight_filler {
      type: "gaussian"
      std: 0.01
    }
    bias_filler {
      type: "constant"
      value: 0
    }
  }
}
layer {
    bottom: "cls_Heavy_Makeup"
    bottom: "Heavy_Makeup_label"
    top: "Heavy_Makeup_acc/top-1"
    name: "Heavy_Makeup_acc/top-1"
    type: "Accuracy"
    include {
        phase: TEST
    }
}
# ============ High_Cheekbones
layer
{
  name: "cls_High_Cheekbones"
  type: "InnerProduct"
  bottom: "fc-512"
  top: "cls_High_Cheekbones"
  param {
    lr_mult: 1
    decay_mult: 1
  }
  param {
    lr_mult: 2
    decay_mult: 0
  }
  inner_product_param {
    num_output: 2
    weight_filler {
      type: "gaussian"
      std: 0.01
    }
    bias_filler {
      type: "constant"
      value: 0
    }
  }
}
layer {
    bottom: "cls_High_Cheekbones"
    bottom: "High_Cheekbones_label"
    top: "High_Cheekbones_acc/top-1"
    name: "High_Cheekbones_acc/top-1"
    type: "Accuracy"
    include {
        phase: TEST
    }
} 
# ============Male
layer
{
  name: "cls_Male"
  type: "InnerProduct"
  bottom: "fc-512"
  top: "cls_Male"
  param {
    lr_mult: 1
    decay_mult: 1
  }
  param {
    lr_mult: 2
    decay_mult: 0
  }
  inner_product_param {
    num_output: 2
    weight_filler {
      type: "gaussian"
      std: 0.01
    }
    bias_filler {
      type: "constant"
      value: 0
    }
  }
}
layer {
    bottom: "cls_Male"
    bottom: "Male_label"
    top: "Male_acc/top-1"
    name: "Male_acc/top-1"
    type: "Accuracy"
    include {
        phase: TEST
    }
}
#=========Mouth_Slightly_Open
layer
{
  name: "cls_Mouth_Slightly_Open"
  type: "InnerProduct"
  bottom: "fc-512"
  top: "cls_Mouth_Slightly_Open"
  param {
    lr_mult: 1
    decay_mult: 1
  }
  param {
    lr_mult: 2
    decay_mult: 0
  }
  inner_product_param {
    num_output: 2
    weight_filler {
      type: "gaussian"
      std: 0.01
    }
    bias_filler {
      type: "constant"
      value: 0
    }
  }
}
layer {
    bottom: "cls_Mouth_Slightly_Open"
    bottom: "Mouth_Slightly_Open_label"
    top: "Mouth_Slightly_Open_acc/top-1"
    name: "Mouth_Slightly_Open_acc/top-1"
    type: "Accuracy"
    include {
        phase: TEST
    }
}
#=========cls_Mustache
layer
{
  name: "cls_Mustache"
  type: "InnerProduct"
  bottom: "fc-512"
  top: "cls_Mustache"
  param {
    lr_mult: 1
    decay_mult: 1
  }
  param {
    lr_mult: 2
    decay_mult: 0
  }
  inner_product_param {
    num_output: 2
    weight_filler {
      type: "gaussian"
      std: 0.01
    }
    bias_filler {
      type: "constant"
      value: 0
    }
  }
}
layer {
    bottom: "cls_Mustache"
    bottom: "Mustache_label"
    top: "Mustache_acc/top-1"
    name: "Mustache_acc/top-1"
    type: "Accuracy"
    include {
        phase: TEST
    }
}
#=========cls_Narrow_Eyes
layer
{
  name: "cls_Narrow_Eyes"
  type: "InnerProduct"
  bottom: "fc-512"
  top: "cls_Narrow_Eyes"
  param {
    lr_mult: 1
    decay_mult: 1
  }
  param {
    lr_mult: 2
    decay_mult: 0
  }
  inner_product_param {
    num_output: 2
    weight_filler {
      type: "gaussian"
      std: 0.01
    }
    bias_filler {
      type: "constant"
      value: 0
    }
  }
}
layer {
    bottom: "cls_Narrow_Eyes"
    bottom: "Narrow_Eyes_label"
    top: "Narrow_Eyes_acc/top-1"
    name: "Narrow_Eyes_acc/top-1"
    type: "Accuracy"
    include {
        phase: TEST
    }
}
#=========cls_No_Beard
layer
{
  name: "cls_No_Beard"
  type: "InnerProduct"
  bottom: "fc-512"
  top: "cls_No_Beard"
  param {
    lr_mult: 1
    decay_mult: 1
  }
  param {
    lr_mult: 2
    decay_mult: 0
  }
  inner_product_param {
    num_output: 2
    weight_filler {
      type: "gaussian"
      std: 0.01
    }
    bias_filler {
      type: "constant"
      value: 0
    }
  }
}
layer {
    bottom: "cls_No_Beard"
    bottom: "No_Beard_label"
    top: "No_Beard_acc/top-1"
    name: "No_Beard_acc/top-1"
    type: "Accuracy"
    include {
        phase: TEST
    }
}
#=========cls_Oval_Face
layer
{
  name: "cls_Oval_Face"
  type: "InnerProduct"
  bottom: "fc-512"
  top: "cls_Oval_Face"
  param {
    lr_mult: 1
    decay_mult: 1
  }
  param {
    lr_mult: 2
    decay_mult: 0
  }
  inner_product_param {
    num_output: 2
    weight_filler {
      type: "gaussian"
      std: 0.01
    }
    bias_filler {
      type: "constant"
      value: 0
    }
  }
}
layer {
    bottom: "cls_Oval_Face"
    bottom: "Oval_Face_label"
    top: "Oval_Face_acc/top-1"
    name: "Oval_Face_acc/top-1"
    type: "Accuracy"
    include {
        phase: TEST
    }
}
#=========cls_Pale_Skin
layer
{
  name: "cls_Pale_Skin"
  type: "InnerProduct"
  bottom: "fc-512"
  top: "cls_Pale_Skin"
  param {
    lr_mult: 1
    decay_mult: 1
  }
  param {
    lr_mult: 2
    decay_mult: 0
  }
  inner_product_param {
    num_output: 2
    weight_filler {
      type: "gaussian"
      std: 0.01
    }
    bias_filler {
      type: "constant"
      value: 0
    }
  }
}  
layer {
    bottom: "cls_Pale_Skin"
    bottom: "Pale_Skin_label"
    top: "Pale_Skin_acc/top-1"
    name: "Pale_Skin_acc/top-1"
    type: "Accuracy"
    include {
        phase: TEST
    }
}
#=========cls_Pointy_Nose
layer
{
  name: "cls_Pointy_Nose"
  type: "InnerProduct"
  bottom: "fc-512"
  top: "cls_Pointy_Nose"
  param {
    lr_mult: 1
    decay_mult: 1
  }
  param {
    lr_mult: 2
    decay_mult: 0
  }
  inner_product_param {
    num_output: 2
    weight_filler {
      type: "gaussian"
      std: 0.01
    }
    bias_filler {
      type: "constant"
      value: 0
    }
  }
}  
layer {
    bottom: "cls_Pointy_Nose"
    bottom: "Pointy_Nose_label"
    top: "Pointy_Nose_acc/top-1"
    name: "Pointy_Nose_acc/top-1"
    type: "Accuracy"
    include {
        phase: TEST
    }
}
#=========cls_Receding_Hairline
layer
{
  name: "cls_Receding_Hairline"
  type: "InnerProduct"
  bottom: "fc-512"
  top: "cls_Receding_Hairline"
  param {
    lr_mult: 1
    decay_mult: 1
  }
  param {
    lr_mult: 2
    decay_mult: 0
  }
  inner_product_param {
    num_output: 2
    weight_filler {
      type: "gaussian"
      std: 0.01
    }
    bias_filler {
      type: "constant"
      value: 0
    }
  }
}  
layer {
    bottom: "cls_Receding_Hairline"
    bottom: "Receding_Hairline_label"
    top: "Receding_Hairline_acc/top-1"
    name: "Receding_Hairline_acc/top-1"
    type: "Accuracy"
    include {
        phase: TEST
    }
}
#=========cls_Rosy_Cheeks
layer
{
  name: "cls_Rosy_Cheeks"
  type: "InnerProduct"
  bottom: "fc-512"
  top: "cls_Rosy_Cheeks"
  param {
    lr_mult: 1
    decay_mult: 1
  }
  param {
    lr_mult: 2
    decay_mult: 0
  }
  inner_product_param {
    num_output: 2
    weight_filler {
      type: "gaussian"
      std: 0.01
    }
    bias_filler {
      type: "constant"
      value: 0
    }
  }
}
layer {
    bottom: "cls_Rosy_Cheeks"
    bottom: "Rosy_Cheeks_label"
    top: "Rosy_Cheeks_acc/top-1"
    name: "Rosy_Cheeks_acc/top-1"
    type: "Accuracy"
    include {
        phase: TEST
    }
}
#=========cls_Sideburns
layer
{
  name: "cls_Sideburns"
  type: "InnerProduct"
  bottom: "fc-512"
  top: "cls_Sideburns"
  param {
    lr_mult: 1
    decay_mult: 1
  }
  param {
    lr_mult: 2
    decay_mult: 0
  }
  inner_product_param {
    num_output: 2
    weight_filler {
      type: "gaussian"
      std: 0.01
    }
    bias_filler {
      type: "constant"
      value: 0
    }
  }
}
layer {
    bottom: "cls_Sideburns"
    bottom: "Sideburns_label"
    top: "Sideburns_acc/top-1"
    name: "Sideburns_acc/top-1"
    type: "Accuracy"
    include {
        phase: TEST
    }
}
#=========cls_Smiling
layer
{
  name: "cls_Smiling"
  type: "InnerProduct"
  bottom: "fc-512"
  top: "cls_Smiling"
  param {
    lr_mult: 1
    decay_mult: 1
  }
  param {
    lr_mult: 2
    decay_mult: 0
  }
  inner_product_param {
    num_output: 2
    weight_filler {
      type: "gaussian"
      std: 0.01
    }
    bias_filler {
      type: "constant"
      value: 0
    }
  }
}
layer {
    bottom: "cls_Smiling"
    bottom: "Smiling_label"
    top: "Smiling_acc/top-1"
    name: "Smiling_acc/top-1"
    type: "Accuracy"
    include {
        phase: TEST
    }
}
#=========cls_Straight_Hair
layer
{
  name: "cls_Straight_Hair"
  type: "InnerProduct"
  bottom: "fc-512"
  top: "cls_Straight_Hair"
  param {
    lr_mult: 1
    decay_mult: 1
  }
  param {
    lr_mult: 2
    decay_mult: 0
  }
  inner_product_param {
    num_output: 2
    weight_filler {
      type: "gaussian"
      std: 0.01
    }
    bias_filler {
      type: "constant"
      value: 0
    }
  }
} 
layer {
    bottom: "cls_Straight_Hair"
    bottom: "Straight_Hair_label"
    top: "Straight_Hair_acc/top-1"
    name: "Straight_Hair_acc/top-1"
    type: "Accuracy"
    include {
        phase: TEST
    }
}
#=========cls_Wavy_Hair
layer
{
  name: "cls_Wavy_Hair"
  type: "InnerProduct"
  bottom: "fc-512"
  top: "cls_Wavy_Hair"
  param {
    lr_mult: 1
    decay_mult: 1
  }
  param {
    lr_mult: 2
    decay_mult: 0
  }
  inner_product_param {
    num_output: 2
    weight_filler {
      type: "gaussian"
      std: 0.01
    }
    bias_filler {
      type: "constant"
      value: 0
    }
  }
} 
layer {
    bottom: "cls_Wavy_Hair"
    bottom: "Wavy_Hair_label"
    top: "Wavy_Hair_acc/top-1"
    name: "Wavy_Hair_acc/top-1"
    type: "Accuracy"
    include {
        phase: TEST
    }
}
#=========cls_Wearing_Earrings
layer
{
  name: "cls_Wearing_Earrings"
  type: "InnerProduct"
  bottom: "fc-512"
  top: "cls_Wearing_Earrings"
  param {
    lr_mult: 1
    decay_mult: 1
  }
  param {
    lr_mult: 2
    decay_mult: 0
  }
  inner_product_param {
    num_output: 2
    weight_filler {
      type: "gaussian"
      std: 0.01
    }
    bias_filler {
      type: "constant"
      value: 0
    }
  }
}
layer {
    bottom: "cls_Wearing_Earrings"
    bottom: "Wearing_Earrings_label"
    top: "Wearing_Earrings_acc/top-1"
    name: "Wearing_Earrings_acc/top-1"
    type: "Accuracy"
    include {
        phase: TEST
    }
}
#=========cls_Wearing_Hat
layer
{
  name: "cls_Wearing_Hat"
  type: "InnerProduct"
  bottom: "fc-512"
  top: "cls_Wearing_Hat"
  param {
    lr_mult: 1
    decay_mult: 1
  }
  param {
    lr_mult: 2
    decay_mult: 0
  }
  inner_product_param {
    num_output: 2
    weight_filler {
      type: "gaussian"
      std: 0.01
    }
    bias_filler {
      type: "constant"
      value: 0
    }
  }
} 
layer {
    bottom: "cls_Wearing_Hat"
    bottom: "Wearing_Hat_label"
    top: "Wearing_Hat_acc/top-1"
    name: "Wearing_Hat_acc/top-1"
    type: "Accuracy"
    include {
        phase: TEST
    }
}
#=========cls_Wearing_Lipstick
layer
{
  name: "cls_Wearing_Lipstick"
  type: "InnerProduct"
  bottom: "fc-512"
  top: "cls_Wearing_Lipstick"
  param {
    lr_mult: 1
    decay_mult: 1
  }
  param {
    lr_mult: 2
    decay_mult: 0
  }
  inner_product_param {
    num_output: 2
    weight_filler {
      type: "gaussian"
      std: 0.01
    }
    bias_filler {
      type: "constant"
      value: 0
    }
  }
}
layer {
    bottom: "cls_Wearing_Lipstick"
    bottom: "Wearing_Lipstick_label"
    top: "Wearing_Lipstick_acc/top-1"
    name: "Wearing_Lipstick_acc/top-1"
    type: "Accuracy"
    include {
        phase: TEST
    }
}
#=========cls_Wearing_Necklace
layer
{
  name: "cls_Wearing_Necklace"
  type: "InnerProduct"
  bottom: "fc-512"
  top: "cls_Wearing_Necklace"
  param {
    lr_mult: 1
    decay_mult: 1
  }
  param {
    lr_mult: 2
    decay_mult: 0
  }
  inner_product_param {
    num_output: 2
    weight_filler {
      type: "gaussian"
      std: 0.01
    }
    bias_filler {
      type: "constant"
      value: 0
    }
  }
}
layer {
    bottom: "cls_Wearing_Necklace"
    bottom: "Wearing_Necklace_label"
    top: "Wearing_Necklace_acc/top-1"
    name: "Wearing_Necklace_acc/top-1"
    type: "Accuracy"
    include {
        phase: TEST
    }
}
#=========cls_Wearing_Necktie
layer
{
  name: "cls_Wearing_Necktie"
  type: "InnerProduct"
  bottom: "fc-512"
  top: "cls_Wearing_Necktie"
  param {
    lr_mult: 1
    decay_mult: 1
  }
  param {
    lr_mult: 2
    decay_mult: 0
  }
  inner_product_param {
    num_output: 2
    weight_filler {
      type: "gaussian"
      std: 0.01
    }
    bias_filler {
      type: "constant"
      value: 0
    }
  }
}
layer {
    bottom: "cls_Wearing_Necktie"
    bottom: "Wearing_Necktie_label"
    top: "Wearing_Necktie_acc/top-1"
    name: "Wearing_Necktie_acc/top-1"
    type: "Accuracy"
    include {
        phase: TEST
    }
}
#=========cls_Young
layer
{
  name: "cls_Young"
  type: "InnerProduct"
  bottom: "fc-512"
  top: "cls_Young"
  param {
    lr_mult: 1
    decay_mult: 1
  }
  param {
    lr_mult: 2
    decay_mult: 0
  }
  inner_product_param {
    num_output: 2
    weight_filler {
      type: "gaussian"
      std: 0.01
    }
    bias_filler {
      type: "constant"
      value: 0
    }
  }
}
layer {
    bottom: "cls_Young"
    bottom: "Young_label"
    top: "Young_acc/top-1"
    name: "Young_acc/top-1"
    type: "Accuracy"
    include {
        phase: TEST
    }
}